models/test2/pretrained_model.pth (torch_old, 459578 bytes, 24 tensors)

backbone.encoder.0.0.weight f4 [64, 3, 3, 3]
-0.003939137 0.107261434 0.013480008 0.088434055 -0.12040081 -0.11326824 -0.0783495 -0.0074716806
0.08620156 -0.16480972 0.08931188 0.036503658 -0.12774572 0.04703249 -0.044395417 -0.10194298
-0.056019425 0.07052596 0.16843204 -0.17301707 0.1515577 -0.019352883 -0.0066500306 0.12521107
-0.055282444 0.0060257167 0.07844667 0.13065295 -0.11030399 -0.14450957 0.09295206 0.01699607
-0.07010097 0.15097262 -0.18827227 -0.08792003 0.044992417 -0.14089046 -0.13240744 -0.045194462
-0.059901834 0.04233411 0.18447919 -0.19123901 0.105779245 0.18688779 0.15380947 -0.0074964315
0.048211038 0.1288773 0.11860506 -0.16184352 0.0914772 -0.10574579 0.07690252 -0.035455123
0.13746874 0.08461593 0.10298289 -0.17354015 0.12409519 0.15365674 0.04009983 -0.05053328
0.12223922 0.17277656 0.13127314 -0.029617012 0.051852793 -0.06849779 -0.015186802 0.18009718
0.12307085 -0.12675208 -0.18694568 -0.038919434 0.13773488 -0.024549097 0.062714174 0.14398499
0.032807842 0.011399761 -0.030575871 0.0012893528 0.16789512 0.064418 -0.19143462 0.0028948486
0.17648022 -0.13134694 -0.060849443 -0.11704738 0.12530567 -0.060682446 -0.07517579 0.18509854
-0.053735778 -0.069623545 -0.07695216 -0.016316235 0.1353909 -0.06460811 -0.055333585 -0.020518243
-0.07933831 -0.10463008 -0.04121235 0.05327311 0.15193053 0.14759038 0.02845253 0.09507413
-0.18533649 0.0635847 0.1705247 0.11689575 0.18026944 -0.046674296 -0.059844658 0.17570679
-0.113156974 0.026557341 0.11050813 -0.11533124 0.02742669 -0.013833791 0.11095689 -0.0015039295
-0.01974377 -0.18265994 0.16717012 -0.10764524 0.12372531 0.16508605 -0.14470148 0.19050963
0.092801586 0.18852092 -0.063291 0.109867886 -0.11522995 0.15301599 -0.09646724 -0.101095594
-0.119166955 -0.064358026 0.1621973 -0.013887078 -0.06631081 0.11439188 -0.15843883 0.18854292
-0.12540849 -0.008502796 0.15523358 -0.1530461 -0.124008 0.1051323 0.1574926 -0.13693444
-0.13242692 0.072073445 0.14375238 0.13460676 -0.16623248 -0.018174276 0.107457146 -0.148999
-0.10506034 0.033180878 -0.14843005 0.1521117 0.15713994 0.13185577 0.1861742 0.13423891
-0.10998182 0.08898027 -0.15894315 -0.065069705 0.05256802 -0.050678745 -0.107003555 -0.122436255
-0.1531877 -0.10642301 -0.079344645 -0.1389657 0.078158244 0.09633814 0.015266731 -0.1855378
0.13662226 0.050557613 0.064479515 0.088652566 -0.09530237 -0.19132996 -0.11686866 0.06426166
-0.18612221 0.17797099 0.15886481 0.17438798 0.020390362 0.086269155 -0.1784103 -0.05424033
-0.03293048 0.18255349 0.06503682 0.04197198 -0.12383351 0.16958971 -0.13822636 0.09954731
-0.14055055 -0.079846226 0.1907806 -0.019566596 0.15533207 -0.113424614 0.18368249 0.043535694
-0.12061617 0.02601336 -0.059409365 -0.069364056 0.19188099 0.011084437 -0.01876156 -0.046270266
0.1331471 -0.014182344 0.02911055 0.04638633 0.08211525 0.13334261 0.02867493 -0.066777274
-0.16727085 -0.12661418 -0.14580765 0.140391 -0.1538051 0.0727063 0.04565057 0.045559466
0.06065117 0.093326524 -0.16050886 0.112743124 0.1589518 -0.12032726 0.021614447 -0.15789618
00000000: e013 81bb e2ab db3d 40db 5c3c ea1c b53d
00000010: b394 f6bd 2ef9 e7bd b475 a0bd 00d5 f4bb
00000020: 728a b03d e1c3 28be 26e9 b63d dc84 153d
00000030: c6cf 02be 24a5 403d f8d7 35bd 7bc7 d0bd
00000040: a074 65bd ea6f 903d 7379 2c3e 632b 31be
00000050: f131 1b3e f089 9ebc 80e8 d9bb 5537 003e
00000060: d86f 62bd 6073 c53b a6a8 a03d e3c9 053e
00000070: 0fe7 e1bd 51fa 13be a65d be3d 583b 8b3c
00000080: 1991 8fbd 9198 1a3e 72ca 40be 6b0f b4bd
00000090: f849 383d 9745 10be d195 07be d41d 39bd
000000a0: a05b 75bd 8866 2d3d 1de8 3c3e 29d4 43be
000000b0: caa2 d83d 835f 3f3e 3b80 1d3e a0a4 f5bb
000000c0: f078 453d 69f8 033e 36e7 f23d 4fba 25be
000000d0: 6658 bb3d 4091 d8bd 127f 9d3d 6439 11bd
000000e0: 9bc4 0c3e 1e4b ad3d b2e8 d23d 82b4 31be
000000f0: 9e25 fe3d 3158 1d3e b83f 243d fcfb 4ebd
00000100: 8e58 fa3d 57ec 303e 776c 063e 609f f2bc
00000110: 9863 543d 9248 8cbd 10d2 78bc 656b 383e
00000120: 920c fc3d 4ccb 01be b06e 3fbe fc69 1fbd
00000130: 5f0a 0d3e 301b c9bc 4a70 803d cd70 133e
00000140: 8461 063d 10c6 3a3c 407a fabc 80ff a83a
00000150: b3ec 2b3e 96ed 833d 7007 44be 80b7 3d3b
00000160: 3bb7 343e d07f 06be 443d 79bd 89b6 efbd
00000170: 2150 003e 288e 78bd c4f5 99bd 798a 3d3e
00000180: 0c1a 5cbd ca96 8ebd 1899 9dbd a0a9 85bc
00000190: e9a3 0a3e 4251 84bd 78a5 62bd e015 a8bc
000001a0: 207c a2bd 4c48 d6bd 48ce 28bd e834 5a3d
000001b0: ad93 1b3e ef21 173e 4815 e93c 3ab6 c23d
000001c0: d9c8 3dbe b238 823d 079e 2e3e 0a67 ef3d
000001d0: 8d98 383e 8c2d 3fbd ac1f 75bd 7bec 333e
000001e0: d8be e7bd c88e d93c 1652 e23d c932 ecbd
000001f0: f0ad e03c 20a7 62bc 5e3d e33d 801f c5ba
00000200: b0bd a1bc 350b 3bbe a52e 2b3e 1c75 dcbd
00000210: b263 fd3d 510c 293e a02c 14be f514 433e
00000220: c20e be3d a10b 413e b69e 81bd 6a02 e13d
00000230: aefd ebbd 39b0 1c3e 9e90 c5bd 350b cfbd
00000240: ce0d f4bd 24ce 83bd 0d17 263e a086 63bc
00000250: f6cd 87bd 4a46 ea3d ca3d 22be 6511 413e
00000260: 156b 00be 504f 0bbc 8df5 1e3e 1eb8 1cbe
00000270: e8f7 fdbd 9a4f d73d bd45 213e 8b38 0cbe
00000280: ec9a 07be 3e9b 933d d333 133e 5bd6 093e
00000290: d938 2abe 38e2 94bc 7e12 dc3d 3293 18be
000002a0: e029 d7bd ace8 073d 0cfe 17be 2bc3 1b3e
000002b0: 4be9 203e 3305 073e 73a4 3e3e ed75 093e
000002c0: 263e e1bd 4a3b b63d fec1 22be 4443 85bd
000002d0: 9051 573d 8494 4fbd ae24 dbbd dcbf fabd
000002e0: 3ddd 1cbe 4ff4 d9bd 727f a2bd 064d 0ebe
000002f0: 6e11 a03d ee4c c53d 5021 7a3c 9ffd 3dbe
00000300: b5e6 0b3e 8015 4f3d d60d 843d 7a8f b53d
00000310: e42d c3bd 00ec 43be d658 efbd 9e9b 833d
00000320: d296 3ebe 073e 363e 75ad 223e c392 323e
00000330: b009 a73c e2ad b03d 31b1 36be 1c2b 5ebd
00000340: 1ce2 06bd 4def 3a3e 0632 853d d0ea 2b3d
00000350: 6c9c fdbd eda8 2d3e 368b 0dbe 76df cb3d
00000360: 7cec 0fbe 6b86 a3bd fd5b 433e 204a a0bc
00000370: 5f0f 1f3e 2a4b e8bd 4317 3c3e 7c52 323d
00000380: 9c05 f7bd f819 d53c 3c57 73bd be0e 8ebd
00000390: 737c 443e 809b 353c d8b1 99bc e485 3dbd
000003a0: b757 083e 105d 68bc 4079 ee3c 98ff 3d3d
000003b0: 0a2c a83d f78a 083e b0e7 ea3c 86c2 88bd
000003c0: 0d49 2bbe 26a7 01be 9a4e 15be a9c2 0f3e
000003d0: 167f 1dbe 0ae7 943d 18fc 3a3d 909c 3a3d
000003e0: 5c6d 783d fa21 bf3d 6f5c 24be dee5 e63d
000003f0: 43c4 223e 236e f6bd c810 b13c 89af 21be

backbone.encoder.0.0.bias f4 [64]
-0.18154868 -0.11239234 0.18311395 -0.18037052 0.116906926 0.11872046 0.12711181 -0.14053914
0.17558368 0.04177317 -0.014192447 -0.06821017 0.098309144 0.14149876 0.15576835 -0.016234353
-0.111863874 -0.065957785 -0.0927904 -0.11914681 -0.09231153 0.11141993 -0.07052922 -0.019894376
0.082982376 0.03795874 0.12138976 0.16851838 -0.028091267 0.18173046 -0.030448586 -0.1662211
-0.13907424 -0.18754 -0.0651623 0.16930945 0.08236103 -0.16032918 0.017543137 -0.026356846
-0.034943268 0.05435656 -0.09945996 -0.14551488 -0.1521313 -0.051584035 0.053997636 -0.19015549
0.0032227486 0.07772796 0.1244636 0.13968839 -0.17675188 -0.1692202 -0.022536337 -0.18468466
-0.12565234 -0.0794014 -0.12784381 -0.05705145 -0.06944483 0.13653685 -0.12709686 0.034067065
00000000: e6e7 39be f52d e6bd 3982 3b3e 0db3 38be
00000010: e66c ef3d b623 f33d 9929 023e 7ee9 0fbe
00000020: 35cc 333e 581a 2b3d 7087 68bc c6b1 8bbd
00000030: 4e56 c93d 0de5 103e bd81 1f3e e8fd 84bc
00000040: e318 e5bd e014 87bd e508 bebd 3e03 f4bd
00000050: d40d bdbd 2230 e43d a071 90bd 88f9 a2bc
00000060: aaf2 a93d a07a 1b3d 329b f83d 1590 2c3e
00000070: a81f e6bc 8d17 3a3e 506f f9bc dd35 2abe
00000080: 7a69 0ebe 7c0a 40be d073 85bd 755f 2d3e
00000090: e6ac a83d 552d 24be a0b6 8f3c 50ea d7bc
000000a0: ac20 0fbd fca4 5e3d aab1 cbbd da01 15be
000000b0: 4fc8 1bbe c849 53bd a02c 5d3d 1fb8 42be
000000c0: c034 533b d62f 9f3d c6e6 fe3d 790a 0f3e
000000d0: 72fe 34be 0f48 2dbe 209e b8bc fa1d 3dbe
000000e0: 02ab 00be 349d a2bd 7de9 02be c8ae 69bd
000000f0: 1739 8ebd 51d0 0b3e ae25 02be e889 0b3d

backbone.encoder.0.1.weight f4 [64]
0.866805 0.8544743 0.9098587 0.317177 0.192891 0.42611367 0.107323945 0.7393309
0.30122346 0.87441677 0.2533918 0.045895636 0.93360084 0.7318462 0.28565013 0.70288527
0.3313412 0.02008468 0.8520638 0.3006869 0.84486234 0.9465217 0.14596498 0.53890437
0.8480031 0.48843896 0.96734184 0.05115384 0.715639 0.7056539 0.9377739 0.6379319
0.32934713 0.7519491 0.123820364 0.9295528 0.30007654 0.30337608 0.6051361 0.6305857
0.6591203 0.4564348 0.14923763 0.06396425 0.44038123 0.6151792 0.6303895 0.20443511
0.86613613 0.97735274 0.08423388 0.23229444 0.9453445 0.048958957 0.100979745 0.7640307
0.62806505 0.3039356 0.40015066 0.9187041 0.00029474497 0.840934 0.9012865 0.9934338
00000000: efe6 5d3f d4be 5a3f 80ec 683f 0665 a23e
00000010: 3885 453e 922b da3e a8cc db3d ca44 3d3f
00000020: f639 9a3e c7d9 5f3f 92bc 813e 10fd 3b3d
00000030: 7700 6f3f 465a 3b3f bc40 923e 4af0 333f
00000040: 8ea5 a93e a088 a43c da20 5a3f a2f3 993e
00000050: e648 583f 3f4f 723f d877 153e a3f5 093f
00000060: bb16 593f ac14 fa3e b7a3 773f b086 513d
00000070: 1e34 373f bca5 343f f311 703f 814f 233f
00000080: 30a0 a83e bc7f 403f 8895 fd3d 2cf7 6d3f
00000090: a2a3 993e 1c54 9b3e 33ea 1a3f 106e 213f
000000a0: 1cbc 283f d2b1 e93e c0d1 183e b0ff 823d
000000b0: a679 e13e 627c 1d3f 3561 213f 7057 513e
000000c0: 19bb 5d3f ca33 7a3f d082 ac3d 98de 6d3e
000000d0: 1902 723f 3089 483d 78ce ce3d 8497 433f
000000e0: dfc8 203f 729d 9b3e 8ce0 cc3e 3130 6b3f
000000f0: 0088 9a39 7347 573f b6ba 663f ad51 7e3f

backbone.encoder.0.1.bias f4 [64]
0.0 0.0 0.0 0.0 0.0 0.0 0.0 0.0
0.0 0.0 0.0 0.0 0.0 0.0 0.0 0.0
0.0 0.0 0.0 0.0 0.0 0.0 0.0 0.0
0.0 0.0 0.0 0.0 0.0 0.0 0.0 0.0
0.0 0.0 0.0 0.0 0.0 0.0 0.0 0.0
0.0 0.0 0.0 0.0 0.0 0.0 0.0 0.0
0.0 0.0 0.0 0.0 0.0 0.0 0.0 0.0
0.0 0.0 0.0 0.0 0.0 0.0 0.0 0.0
00000000: 0000 0000 0000 0000 0000 0000 0000 0000
00000010: 0000 0000 0000 0000 0000 0000 0000 0000
00000020: 0000 0000 0000 0000 0000 0000 0000 0000
00000030: 0000 0000 0000 0000 0000 0000 0000 0000
00000040: 0000 0000 0000 0000 0000 0000 0000 0000
00000050: 0000 0000 0000 0000 0000 0000 0000 0000
00000060: 0000 0000 0000 0000 0000 0000 0000 0000
00000070: 0000 0000 0000 0000 0000 0000 0000 0000
00000080: 0000 0000 0000 0000 0000 0000 0000 0000
00000090: 0000 0000 0000 0000 0000 0000 0000 0000
000000a0: 0000 0000 0000 0000 0000 0000 0000 0000
000000b0: 0000 0000 0000 0000 0000 0000 0000 0000
000000c0: 0000 0000 0000 0000 0000 0000 0000 0000
000000d0: 0000 0000 0000 0000 0000 0000 0000 0000
000000e0: 0000 0000 0000 0000 0000 0000 0000 0000
000000f0: 0000 0000 0000 0000 0000 0000 0000 0000

backbone.encoder.0.1.running_mean f4 [64]
-0.18364255 -0.1179854 0.15887865 -0.1711544 0.099778324 0.11647102 0.13806792 -0.15105718
0.17628567 0.031162096 -0.029465536 -0.06733098 0.09761122 0.16281976 0.15603548 -0.022315882
-0.1008311 -0.05999809 -0.09632941 -0.11314901 -0.060181666 0.098406315 -0.081327185 -0.013636586
0.08448802 0.058913566 0.11941836 0.16617222 -0.048175305 0.19022581 -0.012876298 -0.1472143
-0.10920442 -0.18421778 -0.07143136 0.20847946 0.0877156 -0.17396316 0.010678894 -0.022211548
-0.040405788 0.053776823 -0.13118756 -0.1326919 -0.15586285 -0.027298152 0.04933939 -0.19157821
0.0006236238 0.08307506 0.16019557 0.12789398 -0.16516621 -0.16537347 -0.003357447 -0.19216722
-0.115442514 -0.07266412 -0.12268748 -0.07024798 -0.097941644 0.15662088 -0.13305852 0.013497685
00000000: cb0c 3cbe 54a2 f1bd 16b1 223e 1943 2fbe
00000010: 9458 cc3d 5c88 ee3d ad61 0d3e bcae 1abe
00000020: 3b84 343e a747 ff3c b561 f1bc d3e4 89bd
00000030: 64e8 c73d 39ba 263e c4c7 1f3e cccf b6bc
00000040: 8980 cebd 8fc0 75bd 5b48 c5bd abba e7bd
00000050: 0d81 76bd 4089 c93d de8e a6bd fd6b 5fbc
00000060: 0e08 ad3d 5a4f 713d 9d91 f43d 0d29 2a3e
00000070: 7853 45bd 8eca 423e 1cf7 52bc 58bf 16be
00000080: 91a6 dfbd 96a3 3cbe 9b4a 92bd a47b 553e
00000090: 3da4 b33d 6623 32be 87f6 2e3c fef4 b5bc
000000a0: 8a80 25bd 1645 5c3d 0856 06be 63e0 07be
000000b0: 839a 1fbe 60a0 dfbc 1a18 4a3d 142d 44be
000000c0: af7a 233a 4223 aa3d 4f0a 243e a4f6 023e
000000d0: 5521 29be aa57 29be 9d08 5cbb 7cc7 44be
000000e0: 206d ecbd edd0 94bd 9343 fbbd 2cde 8fbd
000000f0: a195 c8bd 3961 203e 7e40 08be 6525 5d3c

backbone.encoder.0.1.running_var f4 [64]
0.04518346 0.13017187 1.5412381 0.15275437 0.9518949 0.11895621 0.24459712 0.24714239
0.042483754 0.3498549 0.73728055 0.2427694 0.04214606 1.084278 0.06234811 0.06198391
0.3431214 0.1535622 0.35380974 0.14585537 2.0354476 0.36671796 0.73872554 0.15268391
0.12180742 1.0046672 0.4346611 0.08961896 0.70950055 0.39756328 1.0701338 0.82899123
2.5155942 0.05219004 0.13482507 2.778132 0.09666786 0.41783577 0.23349659 0.35560048
0.19032817 0.040907443 2.2474623 0.31418413 0.029022014 1.1084822 0.09950401 0.08260804
0.073151685 0.1622219 2.3074613 0.30410022 0.21515745 0.09469749 0.7497671 0.16675648
0.18831845 0.108315155 0.21232437 0.42378917 1.2793765 0.83715993 0.10429932 1.4302049
00000000: 4b12 393d c64b 053e 4a47 c53f a46b 1c3e
00000010: 62af 733f 509f f33d ab77 7a3e e512 7d3e
00000020: 7203 2e3d 2e20 b33e 6bbe 3c3f 8b98 783e
00000030: 59a1 2c3d 9fc9 8a3f bb60 7f3d d7e2 7d3d
00000040: 9cad af3e 693f 1d3e 8d26 b53e 1c5b 153e
00000050: c644 0240 75c2 bb3e 1e1d 3d3f 2c59 1c3e
00000060: 2b76 f93d ef98 803f e68b de3e 258a b73d
00000070: d4a1 353f 6a8d cb3e 25fa 883f c538 543f
00000080: 7fff 2040 39c5 553d 950f 0a3e eacc 3140
00000090: cdf9 c53d 92ee d53e bb19 6f3e 4411 b63e
000000a0: 63e5 423e 908e 273d 6cd6 0f40 bedc a03e
000000b0: 93bf ed3c bfe2 8d3f c2c8 cb3d 672e a93d
000000c0: 8dd0 953d 7f1d 263e 72ad 1340 06b3 9b3e
000000d0: 3c52 5c3e c2f0 c13d bdf0 3f3f 36c2 2a3e
000000e0: 8dd6 403e 56d4 dd3d 8f6b 593e e5fa d83e
000000f0: 9cc2 a33f 1d50 563f e29a d53d f410 b73f

backbone.encoder.1.0.weight f4 [64, 64, 3, 3]
-0.010247823 -0.016612997 -0.026025217 -0.014977321 -0.028004518 -0.005617257 0.02295034 -0.01033349
0.01906379 -0.021406174 -0.016869977 0.024564806 0.029024843 -0.037575167 0.0032545477 0.009769034
-0.002899561 0.035842095 -0.027902773 0.015420999 -0.012779688 -0.030349627 -0.017402798 -0.021522433
0.033620197 -0.013518512 0.027829368 -0.0234548 -0.0018600114 -0.0028069578 0.003103491 -0.031883083
-0.0049052425 0.03377411 0.018073577 -0.030402165 -0.021000177 -0.03862708 -0.016519865 -0.021254396
-0.017993927 -0.015071824 -0.002504751 0.039190102 0.033248562 -0.041590154 -0.034763258 0.010392342
-0.009174556 0.032113146 0.005941931 -0.03501352 0.017832134 -0.0089764 0.038804624 0.00057436526
-0.009604901 0.036889885 0.00040562823 -0.004977513 0.0050254613 -0.0017880835 -0.008078266 0.01877065
0.037878457 -0.0032742284 0.01657712 0.016581174 -0.040062528 0.008177295 -0.0041753203 -0.030465916
0.023296569 -0.0017912947 0.035145495 0.023300726 0.027806822 0.02194446 0.019132186 -0.013615262
-0.025857618 -0.016531667 -0.01139684 -0.020323476 -0.041282833 -0.033848118 -0.025052022 -0.0011096857
-0.00075467303 0.0009939484 0.003170833 0.0329904 0.03996608 0.03814246 0.0022502393 -0.025705636
-0.03906785 0.0029835738 -0.018114477 -0.021551406 -0.0024739914 -0.025935885 -0.0145009905 0.008114096
0.017175943 0.026271049 0.034979153 -0.040797107 0.0006579794 0.03466511 0.010147568 -0.010654798
0.00042026117 0.009494614 -0.004065443 0.03872514 -0.011973079 -0.008750156 -0.02447505 -0.025372323
0.0149494 -0.008048907 0.009514004 -0.040353335 -0.035319336 0.009911854 0.013233483 -0.016812619
-0.03965923 -0.0398917 0.012003902 0.027184237 0.030484673 -0.018802335 -0.02483294 0.004417505
-0.036453687 0.039743077 -0.023871318 0.010816157 -0.012882104 0.024926137 -0.011907628 -0.009791493
0.009174142 -0.006211981 -0.024727678 0.041526336 -0.024003517 -0.019557994 0.021311823 -0.03747765
-0.013281038 -0.018767755 0.024598453 -0.022579964 -0.0017460845 0.003985103 0.018499922 -2.7507544e-05
-0.02884396 0.032174733 -0.030213848 -0.038912874 0.017955575 0.013090387 -0.040655218 0.0022456497
0.027960617 0.022626933 0.03399924 0.016411815 -0.031656012 0.030944634 -0.010394815 0.031469677
-0.016844273 0.02958021 -0.008300111 -0.015128862 -0.00993013 0.020912211 0.017377328 -0.0027655251
0.006195221 0.024586666 0.030997071 -0.009982202 -0.016652212 -0.02014719 -0.032759137 0.032798294
0.014796063 -0.03098197 0.007269297 0.040622573 -0.009009082 -0.015659165 -0.035850793 -0.016779482
-0.0041455477 0.03494658 0.013981234 -0.029218063 0.012975853 0.039709557 0.019237563 -0.035837203
-0.04139266 0.0268973 0.026904512 0.03195529 0.027734403 0.006717194 -0.013402298 0.008839052
-0.03801872 -0.01096659 -0.007295236 -0.036996152 0.019142166 -0.026115596 -0.03159402 -0.007871468
0.016230285 -0.009288091 0.009305302 -0.036336925 0.012418743 -0.00845911 -0.037839726 -0.024197012
0.0002719462 -0.04108576 0.011234697 -0.016156247 0.0042320974 -0.01736432 0.013235047 -0.030030822
-0.03128923 0.041352343 0.012626868 0.022337671 -0.014880082 0.0061748065 0.025819678 -0.022736838
0.00092507526 -0.025676152 -0.018706247 0.03393798 -0.040865403 0.012012314 0.026779536 0.019771036
00000000: 7ce6 27bc fb17 88bc d632 d5bc 7063 75bc
00000010: bb69 e5bc f810 b8bb 5a02 bc3c cc4d 29bc
00000020: aa2b 9c3c 005c afbc e832 8abc 223c c93c
00000030: 82c5 ed3c 6be8 19bd 404a 553b 4c0e 203c
00000040: 9006 3ebb 29cf 123d 5b94 e4bc 5ca8 7c3c
00000050: e661 51bc c89f f8bc 5090 8ebc d04f b0bc
00000060: 55b5 093d c07c 5dbc 6afa e33c 4824 c0bc
00000070: a0cb f3ba f0f4 37bb f063 4b3b d697 02bd
00000080: 28bc a0bb b956 0a3d 0a0f 943c f60d f9bc
00000090: 9008 acbc 6e37 1ebd ab54 87bc b31d aebc
000000a0: 0068 93bc d0ef 76bc c026 24bb cd85 203d
000000b0: a52f 083d 705a 2abd eb63 0ebd a444 2a3c
000000c0: e050 16bc 1389 033d 88b4 c23b 566a 0fbd
000000d0: b214 923c c011 13bc 99f1 1e3d 0091 163a
000000e0: e05d 1dbc d919 173d 80aa d439 681a a3bb
000000f0: a0ac a43b 205e eaba b45a 04bc e8c4 993c
00000100: 7126 1b3d 7094 56bb becc 873c 3ed5 873c
00000110: 9b18 24bd 10fa 053c 20d1 88bb a893 f9bc
00000120: 72d8 be3c e0c9 eaba b9f4 0f3d 2ae1 be3c
00000130: 22cb e33c dec4 b33c 1abb 9c3c 8c12 5fbc
00000140: 5bd3 d3bc 6b6d 87bc d0b9 3abc 6b7d a6bc
00000150: 3018 29bd 53a4 0abd e639 cdbc e072 91ba
00000160: 40d5 45ba 6047 823a c0cd 4f3b f120 073d
00000170: 79b3 233d 453b 1c3d c078 133b a094 d2bc
00000180: 9c05 20bd 1088 433b d064 94bc 938c b0bc
00000190: b022 22bb 7e77 d4bc 9095 6dbc fcf0 043c
000001a0: 90b4 8c3c 6236 d73c 4d46 0f3d de1a 27bd
000001b0: 407c 2c3a 01fd 0d3d fc41 263c 7691 2ebc
000001c0: 8056 dc39 4c8f 1b3c 6837 85bb 419e 1e3d
000001d0: bc2a 44bc d05c 0fbc e67f c8bc 9ed9 cfbc
000001e0: 54ee 743c 90df 03bc a0e0 1b3c 8a49 25bd
000001f0: 02ab 10bd 5465 223c 40d1 583c 9eba 89bc
00000200: b771 22bd 7b65 23bd 04ac 443c 7ab1 de3c
00000210: feba f93c 5b07 9abc 736e cbbc b8c0 903b
00000220: 7650 15bd a3c9 223d c88d c3bc 4036 313c
00000230: 760f 53bc e631 cc3c 3618 43bc 806c 20bc
00000240: 244f 163c e08d cbbb b391 cabc 8517 2a3d
00000250: 06a3 c4bc 1638 a0bc 2296 ae3c 2a82 19bd
00000260: b698 59bc d6be 99bc b282 c93c 9ef9 b8bc
00000270: e0dc e4ba 7895 823b 268d 973c 00c0 e6b7
00000280: 2b4a ecbc a7c9 033d 0883 f7bc 1b63 1fbd
00000290: 9217 933c 1079 563c 1686 26bd c02b 133b
000002a0: aa0d e53c 1e5c b93c c942 0b3d 1272 863c
000002b0: bca9 01bd 9a7f fd3c 044f 2abc 59e6 003d
000002c0: 00fd 89bc 3252 f23c 30fd 07bc 0cdf 77bc
000002d0: fcb1 22bc 1650 ab3c e65a 8e3c d03d 35bb
000002e0: 4801 cb3b fa69 c93c 92ed fd3c 648c 23bc
000002f0: 386a 88bc b80b a5bc 722e 06bd 8157 063d
00000300: 306b 723c e6cd fdbc 4833 ee3b db63 263d
00000310: d49a 13bc a647 80bc 48d8 12bd 2075 89bc
00000320: 60d7 87bb 2524 0f3d 8c11 653c b85a efbc
00000330: ac98 543c 7da6 223d 1898 9d3c 08ca 12bd
00000340: 5a8b 29bd ba57 dc3c da66 dc3c 8de3 023d
00000350: 4233 e33c e81b dc3b 5095 5bbc acd1 103c
00000360: 84b9 1bbd 36ad 33bc e00c efbb 4789 17bd
00000370: 08d0 9c3c 60f0 d5bc bb68 01bd 54f7 00bc
00000380: 60f5 843c 142d 18bc 4475 183c 07d6 14bd
00000390: fc77 4b3c 1498 0abc d4fd 1abd d038 c6bc
000003a0: 0094 8e39 8b49 28bd bc11 383c 1b5a 84bc
000003b0: 68ad 8a3b 9e3f 8ebc d0d7 583c 3303 f6bc
000003c0: 2329 00bd 1361 293d ece0 4e3c 7efd b63c
000003d0: 96cb 73bc 0856 ca3b ca83 d33c 9b42 babc
000003e0: c080 723a cb56 d2bc d83d 99bc 8d02 0b3d
000003f0: 7b62 27bd 4ccf 443c c260 db3c def6 a13c

backbone.encoder.1.0.bias f4 [64]
-0.040351283 -0.018803969 -0.01763007 -0.01824095 0.039488498 -0.0010817386 0.027843203 0.02973533
0.010561857 0.0029115342 -0.025327593 0.0127971135 -0.027162224 -0.016457573 -0.023651212 0.021991018
0.034660313 0.033682074 0.017399054 0.017510593 -0.0065538995 0.021957267 0.023200538 0.007290993
0.022771772 0.024167974 0.009599786 -0.016406428 0.022024218 0.012181815 -0.023230147 0.025248874
-0.021638146 -0.0024056844 0.022527609 0.020079035 0.027809765 0.027863372 -0.01521576 0.003275875
0.014702726 0.038427997 -0.005613491 -0.03555716 -0.009713467 0.036654923 -0.03752151 -0.0006677322
0.029481504 0.008923899 0.0064966492 -0.03846818 -0.023794144 -0.0077424347 0.025586758 0.018594619
-0.003055349 -0.018934071 -0.035790913 -0.025711745 0.027535755 0.03659295 0.0056496225 -0.030069545
00000000: 6347 25bd c80a 9abc f06c 90bc 0b6e 95bc
00000010: b1be 213d 20c9 8dba 6e17 e43c 8297 f33c
00000020: a40b 2d3c 70cf 3e3b d07b cfbc fcaa 513c
00000030: 5083 debc 08d2 86bc 30c0 c1bc 8226 b43c
00000040: f9f7 0d3d 37f6 093d 7688 8e3c 6072 8f3c
00000050: 18c2 d6bb badf b33c 0e0f be3c 48e9 ee3b
00000060: de8b ba3c eafb c53c 6c48 1d3c c666 86bc
00000070: 226c b43c 3c96 473c 264d bebc bad6 ce3c
00000080: 7b42 b1bc b0a8 1dbb d28b b83c ca7c a43c
00000090: 4ed1 e33c ba41 e43c 864b 79bc 10b0 563b
000000a0: b4e3 703c ad66 1d3d 60f1 b7bb 62a4 11bd
000000b0: 3c25 1fbc 7923 163d 28b0 19bd c00a 2fba
000000c0: 3283 f13c 8c35 123c d8e1 d43b cf90 1dbd
000000d0: f0eb c2bc 40b4 fdbb 529b d13c be53 983c
000000e0: 403c 48bb a01b 9bbc 7e99 12bd 70a1 d2bc
000000f0: aa92 e13c 7de2 153d 7820 b93b 6854 f6bc

backbone.encoder.1.1.weight f4 [64]
0.079891026 0.63277406 0.12238461 0.44584674 0.9248697 0.89385337 0.86046505 0.69574314
0.37560862 0.50453675 0.03791094 0.71864235 0.90290934 0.12786388 0.093102336 0.043290257
0.6612213 0.26395756 0.69608027 0.9789104 0.32874578 0.17868757 0.11247748 0.9902721
0.68027353 0.72268015 0.83432716 0.042476356 0.77520496 0.22877622 0.8754778 0.2509486
0.99310046 0.24264896 0.9229045 0.98284304 0.86979383 0.21950948 0.21825004 0.29298753
0.11651969 0.44639903 0.09308964 0.8942906 0.6682509 0.2869569 0.9884326 0.94692165
0.98870045 0.68840057 0.56710356 0.6260427 0.17651016 0.35208213 0.660539 0.09810293
0.6278585 0.93286765 0.9303785 0.7807568 0.37333637 0.7132532 0.10753769 0.45717973
00000000: e89d a33d 7bfd 213f c8a4 fa3d 0646 e43e
00000010: 43c4 6c3f 93d3 643f 7047 5c3f 391c 323f
00000020: c64f c03e 5229 013f 8048 1b3d f2f8 373f
00000030: 1125 673f c0ee 023e 70ac be3d 2051 313d
00000040: cd45 293f 7225 873e 5132 323f df99 7a3f
00000050: 5e51 a83e e0f9 363e 985a e63d 7982 7d3f
00000060: 6826 2e3f 9101 393f 7796 553f b0fb 2d3d
00000070: d573 463f 5044 6a3e 501f 603f 567c 803e
00000080: d53b 7e3f f878 783e 7843 6c3f 9a9b 7b3f
00000090: cfaa 5e3f 18c7 603e f07c 5f3e 7602 963e
000000a0: e0a1 ee3d 6a8e e43e c8a5 be3d 3bf0 643f
000000b0: 7e12 2b3f 04ec 923e eb09 7d3f 7569 723f
000000c0: 791b 7d3f 053b 303f b32d 113f 5644 203f
000000d0: 14bf 343e 1c44 b43e 1519 293f 30ea c83d
000000e0: 56bb 203f 6ad0 6e3f 492d 6e3f addf 473f
000000f0: f225 bf3e c397 363f b83c dc3d 7613 ea3e

backbone.encoder.1.1.bias f4 [64]
0.0 0.0 0.0 0.0 0.0 0.0 0.0 0.0
0.0 0.0 0.0 0.0 0.0 0.0 0.0 0.0
0.0 0.0 0.0 0.0 0.0 0.0 0.0 0.0
0.0 0.0 0.0 0.0 0.0 0.0 0.0 0.0
0.0 0.0 0.0 0.0 0.0 0.0 0.0 0.0
0.0 0.0 0.0 0.0 0.0 0.0 0.0 0.0
0.0 0.0 0.0 0.0 0.0 0.0 0.0 0.0
0.0 0.0 0.0 0.0 0.0 0.0 0.0 0.0
00000000: 0000 0000 0000 0000 0000 0000 0000 0000
00000010: 0000 0000 0000 0000 0000 0000 0000 0000
00000020: 0000 0000 0000 0000 0000 0000 0000 0000
00000030: 0000 0000 0000 0000 0000 0000 0000 0000
00000040: 0000 0000 0000 0000 0000 0000 0000 0000
00000050: 0000 0000 0000 0000 0000 0000 0000 0000
00000060: 0000 0000 0000 0000 0000 0000 0000 0000
00000070: 0000 0000 0000 0000 0000 0000 0000 0000
00000080: 0000 0000 0000 0000 0000 0000 0000 0000
00000090: 0000 0000 0000 0000 0000 0000 0000 0000
000000a0: 0000 0000 0000 0000 0000 0000 0000 0000
000000b0: 0000 0000 0000 0000 0000 0000 0000 0000
000000c0: 0000 0000 0000 0000 0000 0000 0000 0000
000000d0: 0000 0000 0000 0000 0000 0000 0000 0000
000000e0: 0000 0000 0000 0000 0000 0000 0000 0000
000000f0: 0000 0000 0000 0000 0000 0000 0000 0000

backbone.encoder.1.1.running_mean f4 [64]
-0.21614197 -0.045282144 0.00025712655 0.25124595 0.04424397 0.13577932 0.015141186 -0.03531672
-0.029994044 0.017432705 0.02232413 0.051046796 0.19872075 -0.07823872 -0.06878306 0.091365
0.15359893 -0.13709949 0.23727767 -0.27452463 -0.040533524 -0.023457566 -0.039294474 0.01764265
-0.041033186 -0.22577761 0.048031647 -0.0070740636 -0.15078218 0.27136227 -0.21719402 -0.20647645
-0.029836725 0.12264173 0.34431288 -0.03277414 -0.11682034 0.040911697 -0.01618297 -0.082213685
-0.15155025 -0.18706913 0.09984779 0.23913664 -0.012060455 0.057648737 0.28104421 0.13506153
0.150709 0.17034833 0.29729837 0.026459925 -0.1953002 0.24238858 0.0056123533 -0.057067122
-0.30262145 -0.034737933 -0.07522899 0.10768976 -0.09080203 0.2428381 -0.07208519 -0.14923358
00000000: 5254 5dbe c579 39bd f1ce 8639 4fa3 803e
00000010: 2a39 353d bc09 0b3e bd12 783c 44a8 10bd
00000020: 12b6 f5bc 08cf 8e3c 18e1 b63c 7216 513d
00000030: 747d 4b3e 9f3b a0bd 22de 8cbd 931d bb3d
00000040: 0a49 1d3e cf63 0cbe ebf8 723e 7e8e 8cbe
00000050: 7b06 26bd 152a c0bc 3ef3 20bd 5287 903c
00000060: 6a12 28bd 3f32 67be d5bc 443d 8ccd e7bb
00000070: a566 1abe ffef 8a3e 1c68 5ebe 906e 53be
00000080: 266c f4bc 962b fb3d c749 b03e 2d3e 06bd
00000090: 813f efbd 0693 273d 2692 84bc a65f a8bd
000000a0: fd2f 1bbe 0d8f 3fbe 007d cc3d 3ce0 743e
000000b0: 3799 45bc 1521 6c3d 07e5 8f3e 924d 0a3e
000000c0: 7653 1a3e cb6f 2e3e 7e37 983e 7cc2 d83c
000000d0: c7fc 47be b634 783e d5e7 b73b 37bf 69bd
000000e0: 33f1 9abe 5d49 0ebd a811 9abd 738c dc3d
000000f0: 6af6 b9bd 8daa 783e 66a1 93bd b0d0 18be

backbone.encoder.1.1.running_var f4 [64]
0.036914133 0.04716886 0.022792786 0.029773796 0.023487203 0.02090007 0.052686013 0.07308675
0.10500265 0.013355199 0.016130354 0.028632421 0.060671773 0.061132126 0.016569845 0.018263396
0.016119068 0.017477619 0.04418308 0.03822914 0.018497253 0.068947576 0.0112345675 0.056974493
0.014230518 0.037867982 0.022834698 0.013893956 0.041476212 0.062840484 0.02156615 0.020869987
0.040567514 0.02563365 0.048814006 0.018039264 0.0662439 0.030803692 0.05046005 0.026525903
0.0792761 0.036129303 0.028945005 0.023404302 0.06657716 0.011019361 0.08976422 0.01448736
0.20245796 0.03091057 0.037044477 0.0428283 0.058079597 0.10549562 0.018914089 0.060660604
0.076997235 0.09282526 0.03239674 0.01958606 0.07055786 0.029202815 0.039495364 0.018558111
00000000: 4633 173d 2234 413d f0b7 ba3c 2de8 f33c
00000010: 3c68 c03c a036 ab3c 4acd 573d 82ae 953d
00000020: a10b d73d c4cf 5a3c ce23 843c 8a8e ea3c
00000030: f782 783d ae65 7a3d 7cbd 873c 1e9d 953c
00000040: 230c 843c 392d 8f3c 51f9 343d 2996 1c3d
00000050: 8d87 973c 6334 8d3d 3111 383c 165e 693d
00000060: 1e27 693c 751b 1b3d d50f bb3c 7aa3 633c
00000070: f6e2 293d 83b2 803d 7fab b03c 89f7 aa3c
00000080: 1f2a 263d a9fd d13c 32f1 473d 14c7 933c
00000090: e2aa 873d 0658 fc3c 33af 4e3d da4c d93c
000000a0: 825b a23d 52fc 133d 131e ed3c 61ba bf3c
000000b0: 9b59 883d 8d8a 343c 4ed6 b73d 645c 6d3c
000000c0: 2451 4f3e 2a38 fd3c f3bb 173d ba6c 2f3d
000000d0: dfe4 6d3d 160e d83d b8f1 9a3c 4177 783d
000000e0: bab0 9d3d 2b1b be3d 72b2 043d f272 a03c
000000f0: a480 903d be3a ef3c e4c5 213d 2e07 983c

backbone.encoder.2.0.weight f4 [64, 64, 3, 3]
-0.009772908 0.015896961 0.030785147 0.026592594 0.035836723 -0.015101045 -0.03036431 0.0332346
-0.01857408 -0.01569593 0.033875223 -0.010476958 -0.010873532 0.037926275 0.02400202 0.008547235
-0.033415627 -0.03474383 0.030794013 0.010932539 0.008036599 -0.0130415615 0.03479204 -0.01174677
0.010592815 6.8020076e-05 0.01439454 -0.009157687 -0.027751958 -0.018749863 -0.03896637 -0.024754059
0.033369344 0.020539988 -0.038524013 -0.027875444 0.03683946 -0.040558197 0.04033355 -0.005693134
-0.021755546 -0.017392352 -0.009454537 0.034943845 0.01760916 0.023807567 0.029094782 0.035607446
-0.011433771 -0.007626444 -0.023832586 0.023621853 0.01087236 -0.02004325 -0.0076833107 -0.018382743
-0.03018432 -0.01983518 -0.008361917 -0.029943427 0.021682832 0.04141814 0.024736855 0.019377083
-0.007908862 -0.023183262 -0.015871977 0.0055821054 -0.0003866069 0.03609835 0.010314554 -0.039876632
-0.038700774 -0.037902668 -0.022704408 -0.039946526 -0.011707183 -0.010711562 0.0019605495 -0.02512234
0.02602284 0.001062151 0.029132862 -0.038671937 -0.036660686 0.040274892 -0.038756296 -0.01631711
-0.032345466 -0.030700471 0.024087835 -0.03376942 0.002938807 0.011919349 0.031966735 0.033572268
0.041144688 -0.013713803 0.035671163 0.040531617 -0.00010993704 -0.010949468 -0.026421025 -0.028205048
0.0049999207 -0.028316244 -0.008997366 -0.00713842 0.026901025 -0.03599849 0.025022354 0.029326934
-0.031278886 -0.01951347 0.03375562 -0.028961357 0.011392266 0.0116117 0.030299973 0.024326172
-0.03914407 -0.033052053 0.03262156 0.010844823 -0.0004095845 0.028964918 0.020704973 0.024208415
-0.007513076 -0.00084940717 0.019605488 0.0121730715 -0.01335831 -0.036005095 -0.0005390309 -0.020827502
-0.008078579 -0.0050391257 0.00230797 -0.03958208 -0.036882743 -0.017438889 0.0006192364 0.0070901103
0.031698685 -0.025634756 -0.02161391 -0.017354842 0.0028249323 0.0031634234 0.0147166215 -0.018199757
-0.0006419122 -0.016303515 -0.027988916 -0.009636033 0.021962877 0.025725488 0.022675563 -0.037152514
-0.03305208 0.021677341 -0.022483617 -0.0030263923 -0.02038613 0.034584466 -0.03655751 0.008518722
-0.037228703 0.00077211484 -0.035963655 -0.021412468 0.0271728 0.030109633 0.03203154 0.005021598
0.035461027 -0.009862367 -0.010085743 0.036569882 0.038531426 -0.016077992 -0.017954713 -0.01028122
-0.030909529 -0.001837682 0.032267544 0.029565569 -0.018732226 0.004625436 -0.0043156743 -0.009461179
0.0056765415 -0.017667845 -0.005893681 0.0066847615 -0.036460407 -0.036508948 -0.036681466 0.0036893003
-0.012998253 -0.025806984 -0.027746981 0.013051886 -0.0013966821 0.016020145 0.036932383 0.0064350106
0.0009583533 0.027597878 -0.038356647 0.037183207 -0.02569979 0.029672246 0.018409565 0.035780225
0.02351613 -0.035329886 0.014403507 0.03211977 0.03508618 -0.041111197 -0.03176304 -0.011007752
-0.010625627 -0.02746818 -0.0076401643 0.0077209733 0.00044554844 -0.028880566 0.01423521 -0.026862836
-0.037572127 0.037741724 0.0031189173 0.018985089 0.031633895 -0.018149566 0.032437008 -0.0139489435
0.01498118 0.03371941 0.00073508546 -0.021391815 -0.02337429 0.035212804 0.023667637 0.022176784
-0.0072459728 0.018531818 0.02249838 0.028373074 -0.02292563 0.015152972 -0.018305302 0.034446504
00000000: 8c1e 20bc 583a 823c 2231 fc3c b6d8 d93c
00000010: 87c9 123d 606a 77bc 93be f8bc 0121 083d
00000020: ab28 98bc c094 80bc bfc0 0a3d 8ca7 2bbc
00000030: e626 32bc 9558 1b3d e29f c43c b409 0c3c
00000040: d3de 08bd 8c4f 0ebd ba43 fc3c 641e 333c
00000050: f0ab 033c 46ac 55bc 1982 0e3d 8675 40bc
00000060: 7c8d 2d3c 00a6 8e38 14d7 6b3c 200a 16bc
00000070: 1358 e3bc 5099 99bc 339b 1fbd 06c9 cabc
00000080: 4bae 083d 7a43 a83c 5bcb 1dbd 0b5b e4bc
00000090: f9e4 163d 5a20 26bd cb34 253d 788d babb
000000a0: b038 b2bc 687a 8ebc 34e7 1abc 4721 0f3d
000000b0: 1641 903c 1608 c33c 2e58 ee3c 1dd9 113d
000000c0: b654 3bbc 40e7 f9bb 8e3c c3bc 9e82 c13c
000000d0: fc21 323c be31 a4bc 48c4 fbbb 6897 96bc
000000e0: 1b45 f7bc 637d a2bc 6c00 09bc eb4b f5bc
000000f0: 32a0 b13c 11a6 293d f2a4 ca3c b0bc 9e3c
00000100: 2c94 01bc d3ea bdbc f305 82bc 18ea b63b
00000110: 80b1 cab9 dddb 133d 60fe 283c ae55 23bd
00000120: b484 1ebd d43f 1bbd 98fe b9bc f89e 23bd
00000130: 7ccf 3fbc 8c7f 2fbc 907c 003b 5ecd cdbc
00000140: da2d d53c e037 8b3a 0aa8 ee3c 7766 1ebd
00000150: 8429 16bd 49f7 243d ecbe 1ebd 76ab 85bc
00000160: ae7c 04bd 8e7f fbbc da53 c53c ce51 0abd
00000170: 0099 403b 6049 433c 8def 023d 1383 093d
00000180: 5587 283d dcaf 60bc ed1b 123d 7b04 263d
00000190: 008e e6b8 6665 33bc e870 d8bc 460e e7bc
000001a0: 60d6 a33b 78f7 e7bc b069 13bc 68e9 e9bb
000001b0: 8a5f dc3c 2773 13bd aefb cc3c 0a3f f03c
000001c0: 4a1e 00bd b6da 9fbc 5543 0a3d 5e40 edbc
000001d0: a0a6 3a3c 003f 3e3c a637 f83c ae47 c73c
000001e0: 8855 20bd 9761 07bd 2f9e 053d 7cae 313c
000001f0: 80bd d6b9 d647 ed3c 7a9d a93c ba50 c63c
00000200: 4030 f6bb c0aa 5eba b09b a03c 9071 473c
00000210: d0dc 5abc 147a 13bd c04d 0dba 709e aabc
00000220: 045c 04bc 401f a5bb 5041 173b d220 22bd
00000230: 5c12 17bd 00dc 8ebc 4054 223a 2854 e83b
00000240: 7bd6 013d fbff d1bc a80f b1bc be2b 8ebc
00000250: 8022 393b 7051 4f3b fc1d 713c a817 95bc
00000260: 0046 28ba f38e 85bc 0349 e5bc 74e0 1dbc
00000270: 7eeb b33c 42be d23c 1ac2 b93c 3c2d 18bd
00000280: 9e61 07bd ae94 b13c 902f b8bc 7056 46bb
00000290: d000 a7bc 71a8 0d3d 54bd 15bd 1c92 0b3c
000002a0: 207d 18bd c067 4a3a a04e 13bd 3369 afbc
000002b0: 7e99 de3c 7aa8 f63c 8133 033d 388c a43b
000002c0: 953f 113d c495 21bc ac3e 25bc 4dca 153d
000002d0: 21d3 1d3d feb5 83bc c315 93bc 9072 28bc
000002e0: fb35 fdbc 60de f0ba f92a 043d 7e33 f23c
000002f0: 5374 99bc f890 973b 806a 8dbb 1003 1bbc
00000300: 4802 ba3b 28bc 90bc c81f c1bb d80b db3b
00000310: 8257 15bd 688a 15bd 4e3f 16bd 30c8 713b
00000320: a0f6 54bc 2b69 d3bc a34d e3bc 94d7 553c
00000330: e010 b7ba ae3c 833c 6946 173d c8dc d23b
00000340: 003a 7b3a f214 e23c dc1b 1dbd 6b4d 183d
00000350: 5e88 d2bc 3613 f33c a8cf 963c 498e 123d
00000360: e6a4 c03c 12b6 10bd b0fc 6b3c 0590 033d
00000370: 87b6 0f3d 3764 28bd f619 02bd dc59 34bc
00000380: 1c17 2ebc f304 e1bc 585a fabb 3800 fd3b
00000390: 8098 e939 f096 ecbc cc3a 693c 730f dcbc
000003a0: 3be5 19bd 1197 1a3d c066 4c3b 9e86 9b3c
000003b0: 8b92 013d 66ae 94bc abdc 043d 1c8a 64bc
000003c0: a073 753c 5d1d 0a3d c0b2 403a e33d afbc
000003d0: 707b bfbc 4d3b 103d a2e2 c13c 16ac b53c
000003e0: a06f edbb 0ad0 973c 864e b83c a66e e83c
000003f0: 88ce bbbc 2c44 783c 00f5 95bc c717 0d3d

backbone.encoder.2.0.bias f4 [64]
0.032959748 0.008353859 -0.024829548 0.0032750033 0.026744131 0.02878936 0.028684642 -0.03191942
-0.0069804154 0.0014479794 -0.006273385 0.012199044 0.016944598 -0.038592637 0.023545373 0.006860841
0.019602224 0.031754676 0.014470663 -0.011335438 -0.030185422 0.0024368651 -0.029010117 -0.033754837
0.0027035028 -0.0030760132 -0.03221955 0.027149413 0.03538536 0.01058973 -0.02953591 -0.03948126
0.03696764 0.0029809289 0.020823386 0.010615066 -0.010181334 0.03501307 -0.017905261 0.018300656
-0.01241838 -0.00944601 0.03877003 -0.019846609 0.024003092 0.032592986 -0.007345278 0.023734573
-0.008374829 -0.011162093 0.02937128 -0.01598087 -0.016577497 -0.0180825 -0.0055250116 0.029006843
0.039033834 0.0025891997 0.01753373 -0.01191197 0.001295235 -0.037280403 0.036377724 -0.0025073886
00000000: cd00 073d a0de 083c 5667 cbbc 70a1 563b
00000010: 8216 db3c aad7 eb3c 0efc ea3c f0bd 02bd
00000020: f8bb e4bb 20ca bd3a f890 cdbb 80de 473c
00000030: 66cf 8a3c 5013 1ebd 3ae2 c03c e8d0 e03b
00000040: d894 a03c 3111 023d 5c16 6d3c 46b8 39bc
00000050: 6b47 f7bc d0b3 1f3b a0a6 edbc 8342 0abd
00000060: 402d 313b f096 49bb a6f8 03bd 7268 de3c
00000070: 3df0 103d 8c80 2d3c 4bf5 f1bc 1ab7 21bd
00000080: 616b 173d b05b 433b ce95 aa3c d0ea 2d3c
00000090: 9ccf 26bc dd69 0f3d 0eae 92bc 42eb 953c
000000a0: 7676 4bbc 70c3 1abc 53cd 1e3d 5b95 a2bc
000000b0: 22a2 c43c 3980 053d a8b0 f0bb 026f c23c
000000c0: 9436 09bc 36e1 36bc 0a9c f03c 50ea 82bc
000000d0: 88cd 87bc c021 94bc 280b b5bb c29f ed3c
000000e0: f1e1 1f3d 90af 293b e6a2 8f3c 6c2a 43bc
000000f0: e0c4 a93a 56b3 18bd cf00 153d 0053 24bb

backbone.encoder.2.1.weight f4 [64]
0.11736107 0.7258087 0.21111953 0.8489424 0.24579686 0.45878607 0.49033195 0.5345166
0.15190572 0.7003462 0.45011932 0.08990234 0.46932405 0.7111066 0.9556755 0.2874509
0.20238459 0.5097805 0.77730435 0.38642246 0.5117145 0.40882546 0.20038062 0.24519193
0.27490783 0.17494589 0.26091492 0.08532083 0.09918469 0.41525543 0.32177782 0.6753026
0.38138396 0.17873329 0.54609066 0.15071744 0.20728678 0.035003543 0.6961053 0.5451271
0.8646754 0.67467403 0.30702394 0.8377511 0.20331067 0.88553494 0.5737474 0.6725138
0.4389587 0.14339215 0.03358531 0.30243313 0.27871495 0.5107435 0.96968234 0.98023784
0.28787875 0.4826063 0.90970314 0.5182365 0.33599657 0.4103729 0.75763816 0.33868074
00000000: 005b f03d 99ce 393f b82f 583e 4a54 593f
00000010: 2cb2 7b3e 02e6 ea3e ca0c fb3e 14d6 083f
00000020: 2c8d 1b3e e349 333f 0a76 e63e b81e b83d
00000030: 3e4b f03e 150b 363f 26a7 743f c42c 933e
00000040: e83d 4f3e fa80 023f 6bfd 463f 2ad9 c53e
00000050: b9ff 023f 9251 d13e 9430 4d3e 9813 7b3e
00000060: b8c0 8c3e 0425 333e a496 853e b0bc ae3d
00000070: 5821 cb3d 5c9c d43e 10c0 a43e a2e0 2c3f
00000080: c244 c33e dc05 373e 99cc 0b3f ac55 1a3e
00000090: fc42 543e e05f 0f3d f533 323f 738d 0b3f
000000a0: 5e5b 5d3f 70b7 2c3f 3e32 9d3e db76 563f
000000b0: ac30 503e 6bb2 623f 1ce1 123f dd29 2c3f
000000c0: 32bf e03e 64d5 123e c090 093d 84d8 9a3e
000000d0: bab3 8e3e 16c0 023f 1a3d 783f def0 7a3f
000000e0: d864 933e 2c18 f73e 4ee2 683f 26ab 043f
000000f0: be07 ac3e 661c d23e 93f4 413f 9067 ad3e

backbone.encoder.2.1.bias f4 [64]
0.0 0.0 0.0 0.0 0.0 0.0 0.0 0.0
0.0 0.0 0.0 0.0 0.0 0.0 0.0 0.0
0.0 0.0 0.0 0.0 0.0 0.0 0.0 0.0
0.0 0.0 0.0 0.0 0.0 0.0 0.0 0.0
0.0 0.0 0.0 0.0 0.0 0.0 0.0 0.0
0.0 0.0 0.0 0.0 0.0 0.0 0.0 0.0
0.0 0.0 0.0 0.0 0.0 0.0 0.0 0.0
0.0 0.0 0.0 0.0 0.0 0.0 0.0 0.0
00000000: 0000 0000 0000 0000 0000 0000 0000 0000
00000010: 0000 0000 0000 0000 0000 0000 0000 0000
00000020: 0000 0000 0000 0000 0000 0000 0000 0000
00000030: 0000 0000 0000 0000 0000 0000 0000 0000
00000040: 0000 0000 0000 0000 0000 0000 0000 0000
00000050: 0000 0000 0000 0000 0000 0000 0000 0000
00000060: 0000 0000 0000 0000 0000 0000 0000 0000
00000070: 0000 0000 0000 0000 0000 0000 0000 0000
00000080: 0000 0000 0000 0000 0000 0000 0000 0000
00000090: 0000 0000 0000 0000 0000 0000 0000 0000
000000a0: 0000 0000 0000 0000 0000 0000 0000 0000
000000b0: 0000 0000 0000 0000 0000 0000 0000 0000
000000c0: 0000 0000 0000 0000 0000 0000 0000 0000
000000d0: 0000 0000 0000 0000 0000 0000 0000 0000
000000e0: 0000 0000 0000 0000 0000 0000 0000 0000
000000f0: 0000 0000 0000 0000 0000 0000 0000 0000

backbone.encoder.2.1.running_mean f4 [64]
-0.0018340596 -0.059203565 0.24860321 -0.1438667 0.07761649 0.04589559 0.4913073 0.1407328
-0.17599311 0.12758769 0.03784674 0.1475236 -0.23952796 -0.12039573 -0.21004412 -0.4340695
-0.07267344 0.14534225 0.08025236 0.093564264 0.09159642 0.26863745 -0.4373293 -0.25363985
-0.0029748916 -0.110784195 0.3888763 -0.12960336 -0.04384411 -0.4007941 0.061541688 -0.24052429
-0.01911786 -0.20028204 -0.089025155 0.13986914 -0.22678658 0.28207353 0.09313341 -0.11442762
0.34158772 -0.09384771 0.11178555 -0.012465275 0.45146856 0.07649131 0.00044594795 0.008531757
0.091456994 0.0047320467 0.20433688 -0.5053679 -0.12101602 0.012319307 -0.1486652 -0.5069267
-0.049092546 0.21295637 0.07318675 -0.14307079 0.22990766 0.14076611 0.25602904 -0.20298205
00000000: d464 f0ba 707f 72bd d791 7e3e cb51 13be
00000010: 65f5 9e3d 04fd 3b3d a18c fb3e 421c 103e
00000020: 8a37 34be 59a6 023e 2f05 1b3d 6d10 173e
00000030: d146 75be 0992 f6bd ce15 57be 5c3e debe
00000040: d0d5 94bd 99d4 143e 595b a43d 9f9e bf3d
00000050: e796 bb3d d98a 893e a0e9 dfbe 15dd 81be
00000060: 66f6 42bb d3e2 e2bd cb1a c73e beb6 04be
00000070: e295 33bd e234 cdbe 2313 7c3d 004c 76be
00000080: 0f9d 9cbc bc16 4dbe d252 b6bd db39 0f3e
00000090: be3a 68be f16b 903e bbbc be3d 0759 eabd
000000a0: 96e4 ae3e 3a33 c0bd d3ef e43d 273b 4cbc
000000b0: e326 e73e 7aa7 9c3d 1fce e939 c8c8 0b3c
000000c0: ce4d bb3d 490f 9b3b b03d 513e ca5f 01bf
000000d0: 3fd7 f7bd ebd6 493c b13b 18be f3c5 01bf
000000e0: 4415 49bd 3c11 5a3e efe2 953d 2681 12be
000000f0: ea6c 6b3e fe24 103e 3d16 833e 87da 4fbe

backbone.encoder.2.1.running_var f4 [64]
0.08025065 0.06390352 0.055528995 0.06078955 0.039406795 0.072970025 0.13080226 0.06287032
0.17791691 0.027835624 0.054788344 0.07272916 0.079330824 0.050659157 0.054867458 0.055001844
0.06761603 0.039681226 0.072790265 0.049527172 0.09878004 0.08566928 0.10355672 0.09254442
0.0678193 0.029926768 0.12716807 0.053410057 0.06951866 0.12455283 0.08139924 0.050864592
0.085695915 0.06394654 0.09984602 0.09477808 0.04151357 0.11870256 0.045532178 0.039755143
0.03444155 0.047445327 0.05116968 0.06114959 0.075117365 0.043879576 0.087483324 0.072463185
0.06383462 0.05437146 0.0796393 0.09890841 0.116372526 0.049061548 0.031085191 0.12082655
0.07244281 0.064896844 0.119634315 0.055245783 0.08131903 0.03477863 0.04001639 0.052015726
00000000: 745a a43d d9df 823d 5f72 633d 77fe 783d
00000010: 0569 213d 4f71 953d 07f1 053e 28c2 803d
00000020: da2f 363e 8907 e43c be69 603d 07f3 943d
00000030: 3378 a23d fa7f 4f3d b3bc 603d 9d49 613d
00000040: 467a 8a3d c888 223d 1013 953d 01dd 4a3d
00000050: 314d ca3d 6073 af3d 8c15 d43d ee87 bd3d
00000060: d8e4 8a3d fb28 f53c 5938 023e 81c4 5a3d
00000070: cd5f 8e3d 8e15 ff3d a5b4 a63d 6457 503d
00000080: 5781 af3d 67f6 823d 127c cc3d 031b c23d
00000090: 220a 2a3d 541a f33d f37f 3a3d 4ad6 223d
000000a0: 9512 0d3d 0856 423d 4c97 513d fe77 7a3d
000000b0: 22d7 993d 12bb 333d 752a b33d 9467 943d
000000c0: babb 823d 9cb4 5e3d ee19 a33d 7e90 ca3d
000000d0: b854 ee3d c3f4 483d 5fa6 fe3c e973 f73d
000000e0: e55c 943d a3e8 843d d602 f53d 6749 623d
000000f0: 978a a63d 0974 0e3d 3ae8 233d 710e 553d

backbone.encoder.3.0.weight f4 [64, 64, 3, 3]
0.040501017 0.011037262 0.034749046 0.043882445 0.07250102 0.08141362 -0.014774188 -0.02176919
0.0122253755 0.005633459 0.014182044 -0.0072843083 0.014756113 0.008402781 0.009544389 -0.1359799
0.017587665 -0.021376623 -0.015509711 -0.0017647444 0.0010348853 -0.02200529 0.015075349 0.0054569882
0.12039456 0.067044735 0.006933924 -0.008155327 0.0062988284 -0.005636797 0.012540241 0.01392516
0.0059790076 -0.034042776 -0.024339048 -0.003922297 -0.028385587 -0.03185034 -0.04958037 -0.039065093
0.015070045 -0.024306694 -0.02110695 0.0053274436 0.0077142543 0.027295548 0.0030060434 0.0031435334
-0.04509181 -0.01854112 -0.021516515 -0.033279672 -0.030085314 0.032131553 -0.021228865 -0.02181642
-0.004608259 -0.053551402 -0.0048628966 -0.0044308496 0.032078438 0.043843485 0.00097609765 0.024220075
-0.010427728 0.0032657343 -0.032383386 -0.0070694583 0.023322893 -0.022370052 0.0023441783 0.019101646
-0.1074892 -0.052366626 0.012194206 -0.005338615 0.078571945 0.14145625 -0.21243422 -0.09674798
-0.12609497 -0.005922794 -0.0009376161 -0.008704078 0.0030051465 0.0050820475 -0.00887368 0.009211744
-0.001327129 -0.01065129 -0.0016025946 0.033604316 0.031013604 0.033071585 0.062047374 0.03160753
-0.1318542 -0.009981304 -0.026041856 0.025469199 -0.00025224345 0.027976101 0.05235234 0.027709618
-0.0014047772 -0.018051103 0.00497848 0.08590481 -0.001969084 0.017220573 0.0074841883 0.0046541635
0.010243426 -0.0045295744 -0.00904654 -0.0076732254 -0.0032958107 0.006125245 -0.007988928 -0.007675209
0.046061315 0.00087871193 0.0115595395 0.041041974 0.014838477 0.022184826 -0.011954538 0.015363319
0.01331234 0.0063491995 0.015309111 0.010897435 -0.05533678 0.021392949 0.0075405478 -0.06628537
0.04676092 0.016121956 -0.11617092 0.0632213 0.060860313 -0.27704984 -0.07885862 -0.07373232
-0.027712401 0.026120327 0.033434168 -0.019562155 0.027119515 0.051266108 -0.08880122 -0.01310578
-0.059297826 -0.012741284 -0.00021981983 -0.016801864 0.022798289 -0.009392904 0.0038063985 -0.1467275
-0.0015392223 0.0027580697 -0.010744667 -0.0010496506 0.0072366106 0.022435842 -0.019766467 -0.021943022
0.020261327 0.023583425 -0.00157466 -0.027385728 0.028399266 0.010165724 0.07490344 0.093380116
0.054705016 -0.10730476 0.004517233 -0.027265245 0.028432822 0.027568744 0.013541675 -0.007834268
-0.013642141 0.009439753 -0.024782572 0.0023372648 -0.005433302 0.0049727415 -0.009861353 -0.011786354
0.013563954 -0.008721463 0.02305994 0.012026891 -0.039396953 0.019585112 -0.0647 0.11608488
-0.017112417 0.062254105 0.20932499 0.10249724 -0.25608826 0.043187533 -0.11876151 -0.049803644
0.105925724 0.06868235 0.0015770323 0.09155259 0.059396595 -0.121562146 -0.018828258 -0.03907321
0.018657928 -0.008084144 -0.03720815 0.008800726 -0.027485315 -0.004695461 -0.074006915 -0.023519058
-0.021902952 -0.010557186 -0.029639183 0.0067002326 0.0207158 -0.07673488 -0.048854418 -0.05044998
-0.03655515 -0.043250136 -0.048580434 0.020164138 0.012758936 -0.03317715 0.0006445331 0.050876733
-0.08246675 -0.024163494 -0.022112073 -0.0467059 0.057246886 0.057232 0.082073964 0.15491569
0.13516687 -0.20455582 -0.0071705407 -0.08878292 -0.055815 -0.0043108594 0.008400054 -0.10408247
00000000: 65e4 253d a2d5 343c 0455 0e3d 14be 333d
00000010: 6a7b 943d 2fbc a63d 700f 72bc 4d55 b2bc
00000020: f14c 483c e198 b83b ce5b 683c 35b1 eebb
00000030: a0c3 713c d1ab 093c 1260 1c3c 513e 0bbe
00000040: 0214 903c 071e afbc 711c 7ebc ff4e e7ba
00000050: fda4 873a 7044 b4bc 99fe 763c 89d0 b23b
00000060: 6c91 f63d c04e 893d f835 e33b ec9d 05bc
00000070: 6766 ce3b e1b4 b8bb 9575 4d3c 5b26 643c
00000080: 8deb c33b 7070 0bbd af62 c7bc 9d86 80bb
00000090: e488 e8bc 8175 02bd c914 4bbd b802 20bd
000000a0: 5ae8 763c d51e c7bc 7be8 acbc d691 ae3b
000000b0: dbc7 fc3b ea9a df3c 0a01 453b bd03 4e3b
000000c0: 31b2 38bd 8ce3 97bc 6743 b0bc 4450 08bd
000000d0: 7a75 f6bc 609c 033d 28e8 adbc 59b8 b2bc
000000e0: e100 97bb b758 5bbd ef58 9fbb a930 91bb
000000f0: ae64 033d 3a95 333d cee0 7f3a 2e69 c63c
00000100: 10d9 2abc ee05 563b 71a4 04bd eaa6 e7bb
00000110: a70f bf3c 6641 b7bc c9a0 193b 0e7b 9c3c
00000120: 4c23 dcbd 637e 56bd 35ca 473c 8cef aebb
00000130: 54ea a03d e8d9 103e 5b88 59be ce23 c6bd
00000140: 0a1f 01be ff13 c2bb 5aca 75ba 8d9b 0ebc
00000150: fef1 443b 4e87 a63b e962 11bc dbec 163c
00000160: 0ff3 adba c082 2ebc 270e d2ba aea4 093d
00000170: 3e10 fe3c 1276 073d 6325 7e3d e676 013d
00000180: ca04 07be a088 23bc bb55 d5bc c8a4 d03c
00000190: 8b3f 84b9 232e e53c 686f 563d 48ff e23c
000001a0: 8020 b8ba e8df 93bc 8422 a33b dcee af3d
000001b0: bf0b 01bb 2912 8d3c ec3d f53b f481 983b
000001c0: 0bd4 273c d36c 94bb f037 14bc ae6f fbbb
000001d0: 87fe 57bb 47b6 c83b fee3 02bc 5280 fbbb
000001e0: caaa 3c3d 5c59 663a 3964 3d3c a11b 283d
000001f0: 151d 733c f4bc b53c f7dc 43bc 6eb6 7b3c
00000200: 001c 5a3c f20c d03b 11d3 7a3c 288b 323c
00000210: d2a8 62bd 4440 af3c b316 f73b a0c0 87bd
00000220: 6188 3f3d 3112 843c 05eb edbd 2b7a 813d
00000230: aa48 793d 7ad9 8dbe a180 a1bd f800 97bd
00000240: 1e05 e3bc 4cfa d53c 44f2 083d d040 a0bc
00000250: bf29 de3c 69fc 513d 6add b5bd a0b9 56bc
00000260: 47e2 72bd d2c0 50bc 707f 66b9 10a4 89bc
00000270: 7ac3 ba3c b2e4 19bc c574 793b bc3f 16be
00000280: bbbf c9ba bbc0 343b 660a 30bc 6e94 89ba
00000290: 1721 ed3b 5fcb b73c 49ed a1bc dac1 b3bc
000002a0: 15fb a53c 0732 c13c d264 ceba 0958 e0bc
000002b0: 94a5 e83c 238e 263c fa66 993d 133e bf3d
000002c0: 5e12 603d 99c2 dbbd 4c05 943b 5d5b dfbc
000002d0: f3eb e83c d9d7 e13c e7dd 5d3c 4d5b 00bc
000002e0: 4983 5fbc 32a9 1a3c d204 cbbc cc2c 193b
000002f0: d709 b2bb 61f2 a23b 8391 21bc 8d1b 41bc
00000300: 593b 5e3c 78e4 0ebc 33e8 bc3c 700c 453c
00000310: b35e 21bd f570 a03c 6f81 84bd e9bd ed3d
00000320: 572f 8cbc 29fe 7e3d 4a59 563e 13ea d13d
00000330: 001e 83be 69e5 303d 3c39 f3bd e8fe 4bbd
00000340: 96ef d83d 55a9 8c3d 6cb4 ce3a ed7f bb3d
00000350: d849 733d 93f5 f8bd b83d 9abc 3b0b 20bd
00000360: 83d8 983c 5c73 04bc 9367 18bd ec30 103c
00000370: e228 e1bc 62dc 99bb f090 97bd 0aab c0bc
00000380: d26d b3bc 0cf8 2cbc dfcd f2bc a08d db3b
00000390: 2eb4 a93c 2d27 9dbd 921b 48bd a3a4 4ebd
000003a0: daba 15bd 0e27 31bd 47fc 46bd 432f a53c
000003b0: db0a 513c c3e4 07bd e2f5 283a 1f64 503d
000003c0: 54e4 a8bd 85f2 c5bc 6124 b5bc b04e 3fbd
000003d0: b67b 6a3d 1a6c 6a3d 6516 a83d 38a2 1e3e
000003e0: 2f69 0a3e 1577 51be dbf6 eabb d2d3 b5bd
000003f0: 459e 64bd 1c42 8dbb 61a0 093c 3129 d5bd

backbone.encoder.3.0.bias f4 [64]
-0.043868095 0.056105584 0.023566099 0.0066179913 -0.06050663 0.0085133 0.008639843 -0.035839625
-0.016850866 -0.041923378 0.018671194 0.0036997073 0.011942318 0.02546992 -0.02032175 -0.009044442
0.033425886 -0.055095576 0.026052767 -0.022278672 -0.051510245 0.056899823 -0.0013682672 -0.030656802
0.010723494 0.017120518 0.0024784342 0.04245723 0.052540775 0.01826373 0.027990453 -0.10374953
0.022407077 0.006059986 0.056226715 -0.068893425 0.026652336 -0.035497606 0.023823928 0.038378976
-0.065912925 -0.023605637 -0.025553148 -0.0043104095 -0.006040107 0.015003883 -0.0037791068 -0.052486468
-0.018648135 0.04388893 0.05088107 0.11152336 -0.008057094 -0.03641913 0.021383563 0.03642795
-0.007515303 -0.023604995 -0.017804822 0.015512398 -0.005222003 0.00341186 0.09542449 0.002488311
00000000: 08af 33bd f8ce 653d b10d c13c bcdb d83b
00000010: cdd5 77bd 5e7b 0b3c 218e 0d3c 92cc 12bd
00000020: d40a 8abc d9b7 2bbd 55f4 983c ca76 723b
00000030: b6a9 433c 4ba6 d03c cc79 a6bc 242f 14bc
00000040: 95e9 083d e6ab 61bd 9d6c d53c c381 b6bc
00000050: 68fc 52bd ca0f 693d 6e57 b3ba f923 fbbc
00000060: 98b1 2f3c 5440 8c3c 3a6d 223b a2e7 2d3d
00000070: ff34 573d d19d 953c 3c4c e53c a27a d4bd
00000080: 0c8f b73c d992 c63b fc4d 663d ff17 8dbd
00000090: 0056 da3c f065 11bd 662a c33c 4633 1d3d
000000a0: 5bfd 86bd 9c60 c1bc d654 d1bc 563e 8dbb
000000b0: 17ec c5bb d9d2 753c e4aa 77bb 0dfc 56bd
000000c0: f9c3 98bc e1c4 333d ab68 503d 5c66 e43d
000000d0: e701 04bc 3a2c 15bd 952c af3c 7935 153d
000000e0: ee42 f6bb 435f c1bc 6bdb 91bc b727 7e3c
000000f0: 561d abbb 8399 5f3b ea6d c33d ee12 233b

backbone.encoder.3.1.weight f4 [64]
0.62967306 0.93162996 0.52439183 0.24569553 0.8006823 0.22417527 0.92023665 0.33502328
0.013905942 0.37965298 0.5118453 0.75345224 0.6382223 0.47189927 0.37470424 0.65384305
0.6420952 0.7473581 0.39834887 0.13349295 0.31188166 0.6417773 0.62054217 0.3510853
0.27013308 0.8601109 0.9645591 0.72293204 0.19116718 0.6236304 0.24119914 0.44672018
0.4837516 0.6163021 0.19266725 0.54480606 0.15946639 0.63656116 0.3177448 0.26339352
0.29213613 0.31698656 0.78874576 0.71659863 0.92653215 0.27366388 0.125817 0.26506716
0.59877276 0.74853635 0.5142371 0.33046842 0.114111304 0.55005884 0.035136998 0.6422745
0.35409474 0.5861157 0.37163496 0.87384486 0.44662464 0.7275681 0.97612196 0.48314983
00000000: 4132 213f 4d7f 6e3f 8b3e 063f 9c97 7b3e
00000010: 84f9 4c3f 348e 653e a194 6b3f 2c88 ab3e
00000020: c0d5 633c e061 c23e 4b08 033f 3fe2 403f
00000030: 8962 233f c89c f13e 3cd9 bf3e 4262 273f
00000040: 5a60 243f dc52 3f3f 62f4 cb3e 60b2 083e
00000050: f4ae 9f3e 844b 243f dadb 1e3f 74c1 b33e
00000060: e24e 8a3e 3a30 5c3f 58ed 763f 1312 393f
00000070: 54c1 433e 3ea6 1f3f e8fc 763e 82b8 e43e
00000080: 4aae f73e f9c5 1d3f 904a 453e 6978 0b3f
00000090: 284b 233e acf5 223f 72af a23e 84db 863e
000000a0: de92 953e 104c a23e 3eeb 493f 0273 373f
000000b0: 3631 6d3f ac1d 8c3e 2cd6 003e e2b6 873e
000000c0: 2c49 193f 14a0 3f3f 0ba5 033f 2833 a93e
000000d0: 30b3 e93d a8d0 0c3f d0eb 0f3d 1a6c 243f
000000e0: e84b b53e ae0b 163f f046 be3e 4cb4 5f3f
000000f0: fcab e43e e741 3a3f 21e3 793f 6a5f f73e
